model/model.pth (torch, 1823 bytes, 4 tensors)

linear1.weight f4 [16, 3]
2.2141464 3.9158587 -1.488029 -0.038209975 -0.3711757 -0.32298905 -0.079598345 -0.30224586
-0.16571143 -0.82684094 0.90821993 0.51304626 -1.4598963 -1.0766793 0.22559814 1.2953463
4.5582285 -3.3175106 0.17849642 -0.006619036 -0.10864961 0.766328 1.6298449 -2.909924
-1.2615175 -2.0561855 0.79808074 -1.1002369 -2.1714673 0.6299406 2.134985 1.9621228
-0.9938258 0.3957671 -0.2963812 -0.095170625 0.85253346 -1.3057661 0.89852643 0.52148116
1.8530655 -4.072293 1.1241251 4.5742583 -2.5352678 -1.7465487 -0.5999216 -0.7313391
00000000: 93b4 0d40 6e9d 7a40 bc77 bebf 1082 1cbd
00000010: be0a bebe d25e a5be 7504 a3bd f8bf 9abe
00000020: 42b0 29be d9ab 53bf 1a81 683f 0057 033f
00000030: e2dd babf a1d0 89bf 3303 673e e8cd a53f
00000040: 02dd 9140 1852 54c0 c4c7 363e 80e4 d8bb
00000050: b083 debd 122e 443f c29e d03f 323c 3ac0
00000060: 6879 a1bf 8b98 03c0 054f 4c3f 90d4 8cbf
00000070: 52f9 0ac0 ca43 213f 98a3 0840 d726 fb3f
00000080: 5e6b 7ebf fca1 ca3e 47bf 97be d1e8 c2bd
00000090: a23f 5a3f 5823 a7bf d405 663f ca7f 053f
000000a0: 4031 ed3f 3950 82c0 55e3 8f3f 5360 9240
000000b0: d441 22c0 e88e dfbf 7694 19bf 0a39 3bbf

linear1.bias f4 [16]
2.6815183 -0.34372666 -0.3093098 2.9000614 -0.7643553 2.0281336 -0.42306286 -0.6942506
-0.59268683 -0.43423012 1.2659373 -0.5273492 0.49408048 -1.0201893 2.8861413 -0.655863
00000000: ff9d 2b40 f1fc afbe db5d 9ebe 9b9a 3940
00000010: caac 43bf f1cc 0140 b29b d8be 68ba 31bf
00000020: 53ba 17bf 6953 debe 3c0a a23f 5b00 07bf
00000030: 1ef8 fc3e 9095 82bf 8ab6 3840 a3e6 27bf

linear2.weight f4 [2, 16]
5.0792036 -0.08794892 0.19862212 -0.5939124 -2.2056096 -5.3062525 0.059327334 -3.2729275
-1.7787045 -2.2734551 -4.684385 0.1548713 0.47566655 -3.7111652 4.1366444 -0.7432584
2.2741556 -0.06972352 0.04060145 -1.9710629 0.5426797 -1.4532028 0.083322376 -2.56513
0.1615616 0.102284186 -0.5293971 -0.15652224 -1.2251223 -2.4020274 2.2465239 -0.91808623
00000000: d688 a240 901e b4bd 9963 4b3e a50a 18bf
00000010: b528 0dc0 d2cc a9c0 3801 733d a577 51c0
00000020: 97ac e3bf 4a80 11c0 7be6 95c0 9596 1e3e
00000030: 918a f33e bb83 6dc0 645f 8440 2f46 3ebf
00000040: c48b 1140 34cb 8ebd b54d 263d ca4b fcbf
00000050: 0fed 0a3f 8d02 babf eca4 aa3d 172b 24c0
00000060: 6770 253e 5f7a d13d 9186 07bf 5e47 20be
00000070: cfd0 9cbf d1ba 19c0 0cc7 0f40 b307 6bbf

linear2.bias f4 [2]
-0.9237056 -1.4939169
00000000: f877 6cbf ab38 bfbf
